image-recognition/weight1.npy (npy, 1408 bytes, 1 tensors)

array f8 [10, 16]
0	0xbfd112bf88dc1177	-0.2667692982215821
1	0x3f8ababb7d972686	0.013051476259437377
2	0x3fd524f01753c426	0.33037950780914327
3	0xbfe1ad40b965f117	-0.5523990269717015
4	0xbfb1808ebcd382ae	-0.06836788282408676
5	0xbfd1b61f1d64c670	-0.27674081678842466
6	0xbfc75fdb1eb061ca	-0.1826127910469622
7	0xbfafde495702a461	-0.06224278628480629
8	0xbfe07a9695b55f54	-0.5149643825525154
9	0xbfcc7e668d196ade	-0.22260743989575976
10	0x3f9ccccad4390f05	0.02812497062974641
11	0xbfb75b1ee294d18c	-0.0912341406991059
12	0x3fdbc6c55b265324	0.434007014287362
13	0xbfe13a92d33f21f1	-0.5384000898275741
14	0xbfdace3c4e0e752c	-0.41883761999800373
15	0x3fd06b55d3961c2e	0.25655122435313416
16	0x3fdadf6b1e5108af	0.4198863788661908
17	0x3fd43d8d23bb7fdd	0.3162567948293125
18	0xbfe1bfba7726adea	-0.5546543433351279
19	0xbfdc7461dcbe34d3	-0.4446034103101059
20	0xbfdeaecaaf721235	-0.4794184411369174
21	0xbfdfc8e5e43ee21a	-0.49663684167492905
22	0xbfd0b5658b62d6ab	-0.26107157337114967
23	0x3fc144b1dcfcd206	0.13490889826211133
24	0xbfdb81b9355cd155	-0.4297926922911491
25	0x3fd9137542aba563	0.39181262503423947
26	0xbfcd4f689516cbfa	-0.2289858558629872
27	0xbfe1c047cb6526ce	-0.5547217342911723
28	0x3fb14444a559315a	0.06744793927027129
29	0x3f7d04d11fb6bd25	0.007084671869434876
30	0xbfd2ccca294d1aeb	-0.29374937089271097
31	0x3f74af825bf9e519	0.005050191131539061
32	0xbfd2afa9a1cc0a94	-0.2919715957688507
33	0xbfd2d6277779f1dc	-0.2943209330331038
34	0xbfcf6ce765e01e26	-0.2455109832228441
35	0xbfddbf502c6279f2	-0.4648018296665263
36	0x3fc75dae19b9b23e	0.18254638916131855
37	0xbfd3e05b16051f64	-0.31056859159843087
38	0x3fd32807c0589f44	0.2993182543163935
39	0xbfdc41bace72dac2	-0.4415118232822516
40	0xbfae0e3da2c2ecbc	-0.058702398413026796
41	0x3fbb7c668db98a6c	0.10736695251538614
42	0xbfd9e3769366a21a	-0.4045082511388799
43	0x3fd6af5be3c1ee0a	0.35445306055018533
44	0xbf9db865ddbaaa69	-0.0290237347204915
45	0x3fd516f25c2f2552	0.3295255565868348
46	0xbfd63d5f47d336a4	-0.34749586118855746
47	0xbfbb44d6f5ce846c	-0.106519160281566
48	0xbf7e2b843e42fab1	-0.00736571938995094
49	0xbfc94b41abc0612c	-0.19760914694121234
50	0x3fb2c90d28efef06	0.07338030099338874
51	0xbfe049a73def89aa	-0.5089908799821405
52	0xbfe23c6d53bbf83d	-0.569876349967451
53	0x3fd229bbbafe0bc0	0.28379719983075447
54	0xbfd625712034ffb6	-0.34603527207581963
55	0xbfe23badb426ff1b	-0.5697849768257329
56	0x3fd7d0620e76a11a	0.3720936909908389
57	0x3fa6839ffeb4bb6c	0.04397296890453259
58	0xbfdc50a45ace3bec	-0.44242199771627955
59	0x3fc506294b8d9e28	0.1642505282318194
60	0x3fb9bb6e24e47790	0.10051620865530553
61	0x3fd57beaa08a86c0	0.3356882636818277
62	0xbfc3426c2627c4d2	-0.15046455252698948
63	0xbfe1865f6cee5537	-0.5476529243048053
64	0x3fd1d949d0faef68	0.2788872280905168
65	0xbfdb33b252409aae	-0.42503030807930997
66	0xbfd79be7dc840d8c	-0.3688907292818946
67	0x3fb104c1eec8e9a4	0.06647884444911384
68	0xbfb4134808b5d0b1	-0.07841921055461644
69	0xbfd7c5c185159f7e	-0.3714450645115831
70	0x3fc2d4715f429355	0.1471082415711417
71	0xbfe0f2207c0eb11f	-0.5295565054889585
72	0xbfc8fc17f6433909	-0.1951932861761139
73	0x3fc89b70cfd5a143	0.19224367283028174
74	0x3fc88f87fec85dad	0.19188022556839482
75	0xbfd901976bd13320	-0.3907221367742739
76	0xbfd2ac2137b88820	-0.2917559665821745
77	0x3faf1c47a72bf21c	0.06076263347310748
78	0xbfd1510e5938835e	-0.2705722686096602
79	0xbfdac0ffab02f1c4	-0.4180297060045428
80	0xbfbc793a667eb463	-0.11122479440992232
81	0xbfdceb2991827358	-0.45185317239684286
82	0xbfb74af1d2e3be33	-0.09098731421158206
83	0x3fd29e8ac9bf9d72	0.2909266443443449
84	0x3fd62558da4d92a4	0.34602948492674046
85	0xbfe1e483ca9e5274	-0.5591448743239895
86	0xbf95e01a5ef66e83	-0.021362697645243244
87	0x3fcf344f22b64abe	0.24378384776044543
88	0xbfc90c2d8cbe74d8	-0.19568414089454822
89	0x3fc0640092668ca0	0.12805182598558407
90	0xbfd26c43a13d78ee	-0.28785792108636954
91	0xbfccb7c59b8cd200	-0.2243582734605667
92	0xbf993432e542a58b	-0.024613185160580236
93	0xbfc38f3bfa4abc36	-0.15280866357122286
94	0xbfd8b1d8a99aeca8	-0.38585487902646287
95	0xbfdbfc31e24d3288	-0.4372677526451203
96	0xbfe4b8e1d7c15e1f	-0.6475686277362377
97	0xbfe0d1f068dadf25	-0.5256273315380652
98	0x3fd2fba445e8454a	0.29660898997197604
99	0xbfbe4446b3e50394	-0.11822931186635649
100	0x3fd16e861399e876	0.27237083353214275
101	0xbf83c435256c3041	-0.009651580051944221
102	0x3fc4bcd110e93620	0.16201222730380582
103	0xbfc08daac0756f08	-0.12932333371542648
104	0xbfd6e90cf4a432de	-0.3579742802692588
105	0xbfd9d6b3a610b708	-0.40372935502351526
106	0xbfa4fbf744447e8d	-0.040984847148363014
107	0xbfe11d880b5fb9f5	-0.5348549101016135
108	0xbfa84266ed8aa1eb	-0.047381607529420076
109	0xbfa9cbc5f06a41db	-0.050382791135351566
110	0xbfc69c4cbaec115c	-0.17664488913591014
111	0x3fa48955630b7a97	0.04011027177852105
112	0x3fa4aaa83074c365	0.040364509501506864
113	0xbfe2416d565a4018	-0.5704867064068848
114	0xbfd36a0d34d95cc6	-0.303347875223562
115	0xbfbe0905b7575c99	-0.11732516981224918
116	0x3fd4207a3a711772	0.3144822664947845
117	0xbfae7dac48f21367	-0.05955255880784343
118	0xbfa75b10ce2b145f	-0.04561665074064857
119	0x3fadf8e735d9dc95	0.05853960544930562
120	0xbfda17c865747b1a	-0.40770158679690527
121	0xbfda273de4468c74	-0.4086451272252767
122	0xbfe19893d891d9c6	-0.5498751859548114
123	0xbfa44685c974a782	-0.039600544778593
124	0x3fd4adf40faa0cac	0.3231172707530259
125	0xbfe35fe79529c6ba	-0.6054571069091346
126	0xbfdce917c4195fa4	-0.45172685766510257
127	0x3fd43e65677d8ed4	0.3163083563469915
128	0xbfdd6cc4f68b4f8d	-0.4597637565286668
129	0xbfd09e7e9e8077bd	-0.25967374304479646
130	0xbfd3777e493c7ce5	-0.30416829254131833
131	0xbfd469c2783ddb21	-0.3189550565943354
132	0xbfbc9db326440cbf	-0.11178130802368268
133	0x3f8c3feba288bef8	0.013793793580674216
134	0x3fc8439eeeaa17c4	0.18956362393890747
135	0xbfb6059e56ef3029	-0.0860232317201627
136	0x3fbe182137be8165	0.11755569086972668
137	0xbfd9aeac2d2477c3	-0.4012861672252905
138	0x3f760c428fba00f6	0.00538278580245354
139	0xbfdcd8672c6086f7	-0.4507081921930047
140	0xbfc40ee187d68f72	-0.15670413143845568
141	0x3fcc7d0dc45affb0	0.2225663384215273
142	0x3fe06050afc4197f	0.5117572243623697
143	0xbfde842e2adc02f5	-0.47681764779558417
144	0x3fd2cd2c0e30f317	0.293772710665324
145	0x3fb9d1f1111a6e25	0.10085970561561249
146	0x3fb8e4125b5532f9	0.09723009805493267
147	0xbfccc7e393c2d78d	-0.2248501273622278
148	0x3fb85403637d5d71	0.09503194025943686
149	0xbfd8cd793015e5ed	-0.38754110046246987
150	0xbfbd0422d0cd2449	-0.11334436032952157
151	0x3fd08e03c4692c75	0.2586678903650815
152	0xbfe331e967cc7449	-0.5998427417104121
153	0xbfda59bcfefef779	-0.41172718908261846
154	0x3fcc7cd7c131a9cd	0.22255989964771886
155	0x3f6dd7b3131458e9	0.003642892603816884
156	0xbfe386d46c88f8b1	-0.6102087135148136
157	0xbfc6e1a2973ffb55	-0.17876083741426876
158	0xbfe14ed606ccfb89	-0.5408735401941708
159	0xbfd7b4cc583a4763	-0.3704100476835405
